data.pth (torch, 15447 bytes, 6 tensors)

l1.weight f4 [8, 260]
-0.88364834 -0.00569104 -0.028869553 0.75377905 0.7845062 -0.1403853 -2.1223683 0.16143861
0.9404093 -0.1379804 0.0003418596 0.031589855 0.9628038 -0.4290905 2.161537 -0.91527396
-0.55332726 -0.11910484 -0.72092754 -1.1902543 0.42733318 -0.34989256 -2.8845618 -0.14061505
1.5939925 0.34032792 -0.19002679 -0.2867352 -0.33532467 0.67291474 3.1699722 0.71901244
-0.1443552 0.2282716 -0.35296157 -0.11853848 0.5308638 0.5978969 -1.2451432 -0.36559215
0.30560806 -0.2476174 -1.2230213 0.009182873 0.7303555 1.3669218 -0.3796979 -1.1869727
0.6293812 0.45276478 0.024245197 -0.099528156 0.006531435 0.81177986 0.68546325 -1.0915856
-1.1492871 -0.6249031 0.104422815 0.74947655 -0.44007465 0.053587496 0.88920164 0.36171138
-0.39114246 2.9574778 2.3890474 2.4806552 -0.74810994 1.4331151 -1.2483969 1.0019623
0.07474701 1.9165412 -0.021882068 -0.7141489 0.37669012 0.9801111 2.1977048 0.39427227
3.4342175 0.7684363 -1.8799627 -1.3802123 0.4491889 0.42953408 -0.13832487 0.44296694
0.014194046 -0.021445261 0.6763303 -0.34074274 -0.5960654 -0.49246895 -0.6086236 -0.22178109
0.60374403 -1.2701348 -0.21878387 0.76191926 -1.222179 -0.79496676 -1.2230648 -1.2192448
-1.2185918 3.062175 2.5639007 -1.2192262 -0.47760946 0.033284955 0.8313213 1.1036004
-0.36355314 -0.16658755 -1.1760163 -0.31903923 -0.22562848 1.3437952 -0.1179506 0.24490486
0.92661184 2.061025 0.047509816 -0.36322996 -0.7650741 1.1094 0.4417047 0.5689886
1.2974062 0.13859479 -0.0662656 0.14902613 0.69763255 0.8662795 -0.023661636 -0.27514258
-0.25640246 0.7748114 2.269002 0.75337434 1.1924891 0.9317649 -0.1712845 -0.032385893
0.020595698 -0.24444748 0.14979026 -0.53876007 -0.07379995 0.27138698 -0.07572036 1.1807389
0.4109413 0.517334 0.41561902 0.56765866 0.42792886 -0.5070264 -0.30333382 -0.018324355
-1.4229947 3.9896126 -1.101598 -0.19928741 1.1255206 -0.39630485 0.3048712 2.3502495
0.23406985 -0.067985795 -0.06993218 2.6049762 0.14870742 -0.8243896 0.80120736 3.1142864
1.2722077 1.1443485 -0.3201745 -0.38746864 1.3537276 -0.9765664 0.5544428 1.4886705
-0.68565863 -1.6389582 -1.1319654 0.078767784 0.7052311 0.9195627 1.1436365 0.8073963
1.2310561 1.757075 0.967319 2.4028633 0.7410504 2.278742 0.7555684 -0.81849706
0.33523247 -0.07261666 0.87617594 2.2248933 1.2217978 -0.29698166 1.8927181 2.2038715
-0.34715903 3.2484865 0.28251386 4.330186 -0.16730006 3.4334085 1.6183543 -0.16679059
-0.50381666 1.4333652 0.724905 0.70050573 -1.0866839 0.62681854 1.0678097 -0.453087
-0.8136885 0.8042779 3.018745 -0.29940435 2.4425066 -0.0026862002 -0.021850713 0.74009675
0.692357 -1.037301 1.8491595 -1.2611053 -0.2475688 0.687358 0.3369505 -0.3286366
-0.13874832 -0.17137696 2.3502347 2.66583 -1.0812249 -0.65063757 -0.16797583 -0.39730197
0.36105904 1.603153 0.1459684 -0.04123901 -0.7522031 0.952567 1.2748466 0.115064524
00000000: c736 62bf e77b babb d77f ecbc aaf7 403f
00000010: 66d5 483f 2ac1 0fbe e2d4 07c0 2a50 253e
00000020: aabe 703f bc4a 0dbe 9e3b b339 5d64 013d
00000030: 4f7a 763f c0b1 dbbe 9f56 0a40 654f 6abf
00000040: dba6 0dbf 3ded f3bd b58e 38bf 415a 98bf
00000050: 6acb da3e 1e25 b3be a99c 38c0 64fd 0fbe
00000060: f207 cc3f 763f ae3e 6296 42be f5ce 92be
00000070: adaf abbe 2444 2c3f d3e0 4a40 3311 383f
00000080: d9d1 13be 08c0 693e 61b7 b4be 4dc4 f2bd
00000090: b1e6 073f c50f 193f da60 9fbf e52e bbbe
000000a0: a978 9c3e 6a8f 7dbe f68b 9cbf c373 163c
000000b0: 94f8 3a3f 4bf7 ae3f c367 c2be b9ee 97bf
000000c0: 201f 213f c9d0 e73e dd9d c63c 6bd5 cbbd
000000d0: a605 d63b ced0 4f3f 857a 2f3f 14b9 8bbf
000000e0: d71b 93bf a6f9 1fbf a1db d53d b2dd 3f3f
000000f0: 7751 e1be 907e 5b3d b8a2 633f 3c32 b93e
00000100: d343 c8be 5147 3d40 27e6 1840 0ec3 1e40
00000110: 2284 3fbf 5170 b73f 78cb 9fbf 4d40 803f
00000120: f614 993d 3951 f53f 0642 b3bc 76d2 36bf
00000130: 87dd c03e 90e8 7a3f 32a7 0c40 0ede c93e
00000140: 38ca 5b40 3eb8 443f 9ea2 f0bf ccaa b0bf
00000150: 16fc e53e e4eb db3e 09a5 0dbe 90cc e23e
00000160: 258e 683c f9ad afbc fc23 2d3f d575 aebe
00000170: be97 18bf e424 fcbe c2ce 1bbf 951a 63be
00000180: f88e 1a3f c793 a2bf e108 60be 240d 433f
00000190: 5d70 9cbf f182 4bbf 638d 9cbf 3710 9cbf
000001a0: d1fa 9bbf adfa 4340 f316 2440 9b0f 9cbf
000001b0: 3a89 f4be ce55 083d 79d1 543f c742 8d3f
000001c0: a323 babe ed95 2abe b487 96bf 1c59 a3be
000001d0: 270b 67be 7b01 ac3f 1690 f1bd 57c8 7a3e
000001e0: 6f36 6d3f d5e7 0340 a799 423d 47f9 b9be
000001f0: e5db 43bf d200 8e3f 1e27 e23e 3da9 113f
00000200: 6811 a63f cbeb 0d3e 42b6 87bd 4e9a 183e
00000210: 0c98 323f 7ec4 5d3f 0cd6 c1bc 7ddf 8cbe
00000220: 2f47 83be 0a5a 463f 5437 1140 24dd 403f
00000230: 7ca3 983f 2588 6e3f 3465 2fbe 12a7 04bd
00000240: 4fb8 a83c 7150 7abe 9e62 193e 2eec 09bf
00000250: 6e24 97bd 3cf3 8a3e 4713 9bbd 7422 973f
00000260: e666 d23e 0070 043f 04cc d43e 1452 113f
00000270: 7e19 db3e 7bcc 01bf 924e 9bbe f51c 96bc
00000280: b124 b6bf d055 7f40 2a01 8dbf 0012 4cbe
00000290: 0f11 903f 78e8 cabe 1418 9c3e 7d6a 1640
000002a0: 02b0 6f3e 233c 8bbd 9a38 8fbd eeb7 2640
000002b0: c246 183e 320b 53bf ed1b 4d3f 7850 4740
000002c0: b4d7 a23f 037a 923f e9ed a3be 4a62 c6be
000002d0: f246 ad3f 4100 7abf f7ef 0d3f c18c be3f
000002e0: 5387 2fbf 62c9 d1bf 3ee4 90bf 0151 a13d
000002f0: 068a 343f 7668 6b3f ae62 923f 86b1 4e3f
00000300: 3f93 9d3f d5e7 e03f 38a2 773f 83c8 1940
00000310: 7bb5 3d3f e9d6 1140 ee6c 413f 0689 51bf
00000320: 97a3 ab3e 0bb8 94bd 114d 603f a764 0e40
00000330: df63 9c3f fb0d 98be 9644 f23f 3b0c 0d40
00000340: d4be b1be 34e7 4f40 a8a5 903e e290 8a40
00000350: b550 2bbe f7bc 5b40 3c26 cf3f 27cb 2abe
00000360: 21fa 00bf 8378 b73f 6093 393f 5854 333f
00000370: 7518 8bbf 2e77 203f fdad 883f 05fb e7be
00000380: e44d 50bf 28e5 4d3f 1e33 4140 874b 99be
00000390: 0752 1c40 f60a 30bb 4400 b3bc fb76 3d3f
000003a0: 4f3e 313f 47c6 84bf 42b1 ec3f e66b a1bf
000003b0: ad82 7dbe b2f6 2f3f c784 ac3e 0e43 a8be
000003c0: 0a14 0ebe 717d 2fbe 3f6a 1640 f59c 2a40
000003d0: 9465 8abf 2f90 26bf db01 2cbe 2a6b cbbe
000003e0: bbdc b83e 1e34 cd3f be78 153e 3cea 28bd
000003f0: 6290 40bf 6edb 733f 2c2e a33f f3a6 eb3d

l1.bias f4 [8]
1.1801512 0.5994852 0.5932893 0.68042165 0.8287113 0.856673 0.66238153 1.0066844
00000000: 320f 973f dd77 193f cfe1 173f 1d30 2e3f
00000010: 6c26 543f ec4e 5b3f d691 293f 09db 803f

l2.weight f4 [8, 8]
1.8375772 -1.9844992 -0.37914705 1.4698386 -0.21241303 -0.9728232 2.395912 0.87241775
-0.50450504 0.38299453 0.8118023 -0.9272439 1.9681033 1.4978492 -1.3887638 2.5614219
1.6955138 -0.05392208 -1.956195 -1.6165692 0.1402862 1.502518 -0.13646968 -0.18956402
0.39039847 0.87517923 2.0289047 -0.30755377 -0.39129165 0.06531151 0.4560709 -0.89288723
-0.0039390293 2.723454 -2.033399 3.0539017 1.1853768 2.149033 0.11179628 -0.8149587
-0.36039746 -0.2921633 -0.06495542 0.23252065 -0.079977304 -0.3202834 0.20341489 -0.099705435
1.7597711 1.4019234 1.7213469 -0.22428939 0.9629423 -1.7197093 -1.9547081 0.6464927
1.5880594 -0.70827895 -1.1850142 -1.5074794 0.47418264 0.7530585 -1.3698777 0.95041203
00000000: bb35 eb3f 1204 febf 901f c2be ac23 bc3f
00000010: cd82 59be f10a 79bf 9f56 1940 c556 5f3f
00000020: 3e27 01bf dc17 c43e 47d2 4f3f db5f 6dbf
00000030: cfea fb3f 86b9 bf3f 03c3 b1bf 56ee 2340
00000040: 9906 d93f 66dd 5cbd 9964 fabf bdeb cebf
00000050: 30a7 0f3e 8352 c03f b5be 0bbe 121d 42be
00000060: 4fe2 c73e bf0b 603f 93d9 0140 b077 9dbe
00000070: 6157 c8be 0ac2 853d 2082 e93e 4294 64bf
00000080: f912 81bb 124d 2e40 3623 02c0 2073 4340
00000090: 6dba 973f c289 0940 73f5 e43d 22a1 50bf
000000a0: 0486 b8be 6e96 95be 5907 85bd e519 6e3e
000000b0: 24cb a3bd 30fc a3be fe4b 503e 5d32 ccbd
000000c0: 2e40 e13f 3a72 b33f 1855 dc3f 1eac 65be
000000d0: 6383 763f 6f1f dcbf e033 fabf 8c80 253f
000000e0: 8845 cb3f c551 35bf 8cae 97bf 16f5 c0bf
000000f0: 11c8 f23e 71c8 403f 2758 afbf 344e 733f

l2.bias f4 [8]
1.0891902 0.56139386 0.7323308 0.6554343 0.41053033 -0.36035547 0.014846103 0.45873237
00000000: 966a 8b3f 82b7 0f3f 087a 3b3f 8bca 273f
00000010: 0831 d23e 8380 b8be 123d 733c f8de ea3e

l3.weight f4 [27, 8]
-0.5450335 -5.4294577 -6.041266 -0.046417702 1.5072253 0.0038970527 -3.2806797 -2.0015755
-0.92055386 -0.42996517 0.49787596 -0.11443899 0.014220102 -0.16327083 0.6537498 0.3670546
-1.1784406 0.66837525 -5.8808937 0.030206535 -0.89786214 -0.36037967 0.9882983 -0.57188743
-0.5200262 1.7615876 -3.8056853 -0.30163637 -3.0400553 0.28736198 -2.767719 0.19313659
-0.2713159 -0.28429466 0.6036482 -0.022574704 0.18555711 -0.09887933 -1.0032175 -1.5241554
-1.1983984 0.8266202 -0.11223821 -0.7283637 -0.6091191 -0.27123448 -0.09155296 0.8439633
0.51641756 -0.2545861 0.2578478 -1.7008842 -0.7146223 -0.19175035 -0.12987413 0.46183282
0.0023872815 0.14001136 0.15036842 -0.61538893 -2.6397185 -0.21393801 0.63461685 0.39017698
0.8225121 -1.4956089 -0.73260576 0.25617585 -2.5135403 -0.09769709 0.93720007 -1.2775983
0.5307892 -2.9561515 0.73343915 0.6619879 -0.6818919 0.115820624 0.60374373 -0.7910279
-5.5390463 0.3062494 0.5655991 0.7499142 0.903871 -0.36325735 -0.60904807 -4.8961945
-1.0257291 0.07860851 0.8156777 -0.835814 0.23835784 -0.068517886 -0.32157537 0.39952496
0.56127864 -4.6853004 -5.1640515 1.7813485 -0.5795701 -0.026637599 -3.2845724 -2.357866
-0.7331054 -5.435292 -0.465852 -0.47763497 0.26058543 0.2809295 2.369314 -4.568159
-0.11721748 -0.31385615 -0.064945 -0.8668659 0.48273477 0.056439415 -0.526418 -1.0820419
0.8650926 1.2457691 0.2738264 -3.1621416 -4.2907715 -0.33829105 -4.177184 -3.8790042
-1.9116951 1.6997778 0.040649764 -5.5946956 0.28607014 0.17182647 -4.2192874 -3.0650055
-0.5079957 0.36349425 -7.302008 1.1979228 -0.7342902 -0.12712358 -6.6491017 -1.6662091
-0.14345491 1.0308567 -3.070953 -1.1876796 -5.0640907 -0.32099992 1.1057812 -5.408235
-1.07366 -0.86079925 -0.8082159 -1.0478039 -1.1741552 -0.051478833 -1.1164023 -1.0751127
-0.11216232 0.011896957 -1.008323 -0.1615206 -0.015138118 0.016950523 0.76211035 -0.85834575
-4.120309 -2.6411204 -1.6114751 1.7625638 1.4877027 0.32066137 -3.9777133 -0.986073
0.914712 -1.3163828 0.8276791 -1.0009238 -1.5446332 -0.3241425 -0.8360688 0.6192589
-2.3307436 -0.034804292 -4.258844 -3.288714 1.5414096 0.22242525 -3.908593 -3.8930566
0.8605461 -4.553399 0.029490912 -1.4372622 0.21767989 0.23224352 -6.515163 -6.6116176
-1.0899885 -0.62238926 -3.7790031 1.9890198 -3.6009743 -0.101692386 -0.71522725 -4.08847
-1.8707635 -2.2314599 -7.2558784 0.23550883 0.99416924 -0.08341397 1.4512796 -2.7236063
00000000: 5187 0bbf 1ebe adc0 0d52 c1c0 7d20 3ebd
00000010: c2ec c03f b265 7f3b a8f6 51c0 d019 00c0
00000020: 6ba9 6bbf 6524 dcbe 99e9 fe3e fd5e eabd
00000030: 6efb 683c 7830 27be 265c 273f 95ee bb3e
00000040: 24d7 96bf a41a 2b3f 4830 bcc0 b273 f73c
00000050: 4bda 65bf af83 b8be 1e01 7d3f 3767 12bf
00000060: 7020 05bf b47b e13f 5990 73c0 1570 9abe
00000070: 4490 42c0 1c21 933e 4f22 31c0 99c5 453e
00000080: ebe9 8abe 128f 91be b088 1a3f 96ee b8bc
00000090: af02 3e3e 3f81 cabd 6e69 80bf 8617 c3bf
000000a0: 1e65 99bf 629d 533f 26dd e5bd 0b76 3abf
000000b0: 3bef 1bbf 3fdf 8abe 1e80 bbbd fb0d 583f
000000c0: f133 043f 1c59 82be a004 843e 93b6 d9bf
000000d0: 7df1 36bf 345a 44be b9fd 04be 5a75 ec3e
000000e0: f073 1c3b 235f 0f3e 2efa 193e 218a 1dbf
000000f0: 26f1 28c0 9112 5bbe 4076 223f 47c5 c73e
00000100: 2790 523f 1d70 bfbf 0d8c 3bbf 7b29 833e
00000110: d8dd 20c0 6915 c8bd 58ec 6f3f 5788 a3bf
00000120: cde1 073f 9631 3dc0 abc2 3b3f 0a78 293f
00000130: 7890 2ebf 5d33 ed3d f38e 1a3f ce80 4abf
00000140: de3f b1c0 b9cc 9c3e 1acb 103f 61fa 3f3f
00000150: 1764 673f defc b9be 93ea 1bbf a0ad 9cc0
00000160: 174b 83bf 80fd a03d 41d0 503f e8f7 55bf
00000170: 1414 743e 1b53 8cbd 87a5 a4be 898e cc3e
00000180: f5af 0f3f fbed 95c0 e93f a5c0 3a03 e43f
00000190: b55e 14bf 1837 dabc 6f36 52c0 47e7 16c0
000001a0: ccac 3bbf e9ed adc0 2784 eebe 928c f4be
000001b0: 746b 853e fed5 8f3e d7a2 1740 5c2e 92c0
000001c0: b80f f0bd c1b1 a0be e201 85bd ecea 5dbf
000001d0: 0329 f73e 042d 673d 54c3 06bf 5980 8abf
000001e0: b576 5d3f 5d75 9f3f f932 8c3e 8760 4ac0
000001f0: 004e 89c0 7c34 adbe 7eab 85c0 9b41 78c0
00000200: 6db2 f4bf 5292 d93f 5e80 263d bf07 b3c0
00000210: c977 923e 47f3 2f3e 6704 87c0 0d29 44c0
00000220: 020c 02bf eb1b ba3e 0daa e9c0 8955 993f
00000230: 71fa 3bbf af2c 02be 71c5 d4c0 5746 d5bf
00000240: d8e5 12be 1df3 833f 7e8a 44c0 e305 98bf
00000250: 080d a2c0 1a5a a4be 3d8a 8d3f 4310 adc0
00000260: b16d 89bf 575d 5cbf 3de7 4ebf 701e 86bf
00000270: b84a 96bf 78db 52bd 45e6 8ebf 4b9d 89bf
00000280: 5cb5 e5bd 74eb 423c ba10 81bf a865 25be
00000290: de05 78bc d3db 8a3c aa19 433f 8cbc 5bbf
000002a0: 92d9 83c0 1e08 29c0 d144 cebf b19b e13f
000002b0: 0b6d be3f ba2d a43e db92 7ec0 486f 7cbf
000002c0: 912a 6a3f 3b7f a8bf c7e2 533f 451e 80bf
000002d0: 8ab6 c5bf 01f6 a5be 9b08 56bf c087 1e3f
000002e0: e72a 15c0 f28e 0ebd 7348 88c0 4a7a 52c0
000002f0: e94c c53f 72c3 633e 6326 7ac0 d727 79c0
00000300: c04c 5c3f 72b5 91c0 ed96 f13c 35f8 b7bf
00000310: 7ae7 5e3e 3fd1 6d3e 377c d0c0 5f92 d3c0
00000320: be84 8bbf e754 1fbf 30db 71c0 3398 fe3f
00000330: 5d76 66c0 1944 d0bd 2219 37bf bfd4 82c0
00000340: 2e75 efbf 3dd0 0ec0 2830 e8c0 3a29 713e
00000350: e081 7e3f f2d4 aabd 88c3 b93f 914f 2ec0

l3.bias f4 [27]
-0.06467343 -0.12651788 0.2447544 0.18887857 -0.07950825 -0.50449276 0.054150246 -0.64667386
0.23431818 0.66279143 -0.10628243 -0.26219556 -0.70782065 -2.3319166 -0.5603892 1.0198649
0.35786673 -1.1821645 -0.62345773 -0.47055903 0.14896497 0.29828826 -0.0834242 -0.37087348
0.23603767 1.1674609 -0.042027093
00000000: 8173 84bd e78d 01be e6a0 7a3e 6269 413e
00000010: 39d5 a2bd 7026 01bf a6cc 5d3d 6b8c 25bf
00000020: 1bf1 6f3e b3ac 293f 9aaa d9bd 7f3e 86be
00000030: bc33 35bf 1f3e 15c0 ab75 0fbf ef8a 823f
00000040: 4f3a b73e 2b51 97bf ed9a 1fbf 1ded f0be
00000050: 468a 183e 3db9 983e 4fda aabd 21e3 bdbe
00000060: dcb3 713e 5c6f 953f 9a24 2cbd
